Testing/Neural_net/weights/b1_c.npy (npy, 8128 bytes, 1 tensors)

array f8 [1000, 1]
00000000: 6358 0d30 75b5 443f bff2 a0aa f810 523f
00000010: 14cb c534 166b 1e3f 2a8d 4e89 160c 3bbf
00000020: ae1b 4219 121a 5c3f a9a4 b082 31c0 633f
00000030: 81be facf e1a6 dabf 0a23 cd4c b1b3 b03f
00000040: 5edc 0e1d fb68 b93f c0da f0d4 a4c9 a0bf
00000050: 5d6e 95f9 cbe1 6f3f 4986 e41d b380 2b3f
00000060: 58f8 8182 1893 873f 23b1 4390 253d 353f
00000070: 8f70 2f82 e6c7 733f 3115 a9d2 5bab 54bf
00000080: c847 d621 8392 2f3f abf4 9027 7bdb 323f
00000090: ff19 bc10 9b1a 843f 984a bd13 4046 413f
000000a0: 1b6c 80a9 2cb6 4cbf 9384 fec5 752f 933f
000000b0: 291c c722 e520 85bf fae0 86bd 33b1 34bf
000000c0: b7fc e081 e908 763f 0b28 e027 c90b 6a3f
000000d0: ad76 65c3 5e9f e0bf 3b33 bb5f a78b 5a3f
000000e0: 7370 8ff8 8200 51bf f1b8 54a7 c033 7c3f
000000f0: cf2c a0b7 eae8 673f 0367 2396 bca5 62bf
00000100: 1282 26f9 e4c6 5a3f f465 2cf8 12b3 6abf
00000110: a04b 9477 04c2 52bf be87 e57f 9cab 23bf
00000120: edb9 c9eb c4bb 553f 7b1e 8e80 8417 2cbf
00000130: 7cbf f15c a44e 6abf 990b 5a50 3380 b4bf
00000140: 515c 4f99 c3fd 7c3f f494 21ac 4414 533f
00000150: d3b7 9e97 4080 5bbf 75d1 633d a2b9 87bf
00000160: b498 6858 baa9 65bf 8d04 7146 b41b 453f
00000170: abce 74c9 2ef2 7c3f f5c3 936b a37f 803f
00000180: 2054 a14c f23d 7a3f ae6d bc9b 62b8 663f
00000190: ceb3 c164 265a 513f b03a b990 0e16 693f
000001a0: 7dc2 227e 1055 333f 4f78 c083 c1cc 673f
000001b0: 7b53 5e08 c4ea 553f 5a87 ee95 951a 60bf
000001c0: a09c 7200 b680 53bf d18f b73b c012 d2bf
000001d0: 0d73 624c 5d8a 673f ac3f f792 d7aa 54bf
000001e0: 1758 73bd fa8a 42bf 053c 5139 f13a 37bf
000001f0: c17a 66d4 5641 453f 7845 4f86 7e62 413f
00000200: 77a0 1806 d291 433f 2c0d efad b211 13bf
00000210: 91fd 7338 707c 56bf 901f 8a03 b115 74bf
00000220: d750 9805 baec 4cbf c73f a09b d1ae 613f
00000230: 6fb0 0c99 c0c4 583f 68bc be9c 8eab c8bf
00000240: 51a4 e777 2c2f 60bf 0e98 01f7 fcd2 4ebf
00000250: a9f6 f34d 912b 683f b157 d529 8c3c 46bf
00000260: 4488 7819 37b9 713f 2caa ced4 e5f9 413f
00000270: 6ef2 ce33 a384 4e3f 3a21 6056 0d04 873f
00000280: 494d 9bdf 7f3c 62bf 6531 5b40 16df 843f
00000290: 79da b4a0 4aa8 6e3f b43f ce2e bf78 59bf
000002a0: cbce 7faa a1e6 41bf 070c 2d76 bf08 49bf
000002b0: a8ca 484f 5fb4 613f 3fb4 104b 1237 0abf
000002c0: 3721 c1fd b9af 4abf cda1 e66b d529 65bf
000002d0: 20a5 8711 82d5 4bbf 2dfd bef6 d587 5b3f
000002e0: e299 f78d 007b 733f ab2e fa17 da0b 22bf
000002f0: 4b36 e6bb a7fa 4dbf 4c83 5fe2 162f 783f
00000300: def8 6303 ac41 2ebf 2426 3a8f 7f9d 99bf
00000310: c3df 9afd 3b9d 523f 04ac 6338 78c0 4ebf
00000320: 79cb 53c3 b55f 623f cb1f 04b7 7b70 3cbf
00000330: 38b0 3bc7 1069 bb3f bedf e224 a220 1bbf
00000340: 48a7 f7ed 1c85 6b3f d71e f2cc 1e8e 3cbf
00000350: a785 9bde cfb4 33bf 7d74 5ad2 69a9 45bf
00000360: b2b6 e5e2 eb63 343f 0445 3c56 e4cf b03f
00000370: 6512 7725 df3d 33bf 07be 1348 0b2e 593f
00000380: baa5 22b0 9457 8c3f 33da fcff 5818 57bf
00000390: 44f4 2b70 9176 37bf 0412 fd29 1cee a73f
000003a0: 6d4a 8b9f 4982 33bf 809f 37b0 ab95 53bf
000003b0: f984 2ef4 5bfd 66bf 7e64 2ad1 ab70 563f
000003c0: dfd3 066d 9500 453f 6399 e22c 3f8e 3d3f
000003d0: f45c bf09 0d63 6d3f 663e 90d6 b335 143f
000003e0: 5ae6 73d4 f345 5a3f 28fa 1b91 c72c 5d3f
000003f0: 56bf ba09 912e 223f 093c afe8 0430 3fbf
00000400: f502 a7a9 70cd bf3f 866d 6402 eb77 903f
00000410: a189 9a23 aa4f 13bf 1c88 b5ca d231 cabf
00000420: 616e 747f f3f7 613f f87a a446 5f8c 4fbf
00000430: 2c19 d6b6 aeb3 49bf 8b20 8e64 9c41 5fbf
00000440: 628e f132 1860 613f 0452 2058 23f2 3fbf
00000450: 1ee8 d1c7 9ae5 0bbf ac5c 583d 5fa3 413f
00000460: badd 36b2 e774 25bf 964e ec83 0a93 6c3f
00000470: f886 64d4 ea14 343f 19dd 980d 48a5 b23f
00000480: 8200 5178 e685 533f 28c6 7544 a5cc 31bf
00000490: 97bd a942 43aa 683f 4335 056a a635 363f
000004a0: f6d4 d0d2 12f7 aa3f 2339 0e46 a412 823f
000004b0: b1f6 6711 0423 933f 4e22 f4cc d779 43bf
000004c0: 378c 8d47 2a3e 613f 1d45 a7d6 881f 463f
000004d0: acd6 5034 8099 9e3f 114e c4cc b2ae 3d3f
000004e0: a527 8c14 26cc 953f 0823 942d c05d 6f3f
000004f0: ec98 ecf8 321c 62bf 297c e30a b358 28bf
00000500: db52 724b 20ee 473f 7703 a895 81f7 61bf
00000510: 5931 b3ac a94f 603f 7d9e b5e4 5091 333f
00000520: 6b89 f529 a83c 7e3f 2899 fe12 5f8d 55bf
00000530: 2fbf 27e8 2126 20bf 941b ca2b e078 a63f
00000540: 7462 b25e b069 673f 9f67 4f89 e1d5 44bf
00000550: a9d1 4012 5c56 493f 8718 d400 5683 183f
00000560: 2d67 eaa1 8452 6a3f e382 2991 57b8 48bf
00000570: 40e4 ccab ed53 633f e489 add3 7abe 4bbf
00000580: 0fec 4f2a 4975 1f3f 9075 64dd bccc 37bf
00000590: 80b0 35e2 b7b8 16bf c217 42dc c78c 60bf
000005a0: 6b87 fa09 5f3b 483f 8a06 a3a3 a19b 723f
000005b0: 6132 18e3 7248 563f 2f83 670e 56c9 51bf
000005c0: fc64 8b05 aaed 9a3f 3b86 b7eb 8255 843f
000005d0: 9f4e c582 378a c03f f163 07ac 7949 1c3f
000005e0: 7cfc b715 973b 60bf c81c 0961 a437 05bf
000005f0: b21b 10cc 4c3a 73bf 07c4 936c efa4 663f
00000600: 7f7d c185 b218 6a3f a0dd 1293 2b85 2abf
00000610: 330e 10de 1797 633f 1ba1 2bae e5ad 4d3f
00000620: db18 3cdf 60a4 353f dbdb 3352 77d7 4d3f
00000630: b8e7 27ab 3671 833f 7514 dc53 ba5c 653f
00000640: ffa9 10c5 eee2 623f 380f eba4 f809 75bf
00000650: 23b8 32f8 d0db 03bf e857 35a6 b064 5d3f
00000660: 39bc 727a cb3b 563f 69e4 8345 a506 93bf
00000670: 960c c3c2 1053 473f 1921 d9f0 7258 6bbf
00000680: 9a76 022a 9cc1 57bf daed 00b9 aed5 573f
00000690: 4d49 54dc 10bf 7c3f 6ff3 79c9 c905 8c3f
000006a0: b8e2 de22 0635 713f f696 73b9 24dd 4cbf
000006b0: 9221 6ccc 3875 83bf 76af a8d9 8c91 793f
000006c0: bee5 b610 79ca b3bf 82b9 5923 1c65 b93f
000006d0: cbf0 4589 a266 5bbf 372b 09e8 f863 4fbf
000006e0: 8845 f042 2444 573f a431 df5e c7b8 903f
000006f0: f9e5 c471 5216 363f 5e4d 7bc5 ea53 2c3f
00000700: 44b6 0bc6 3cc3 37bf dbb3 3aa1 f0ad 9ebf
00000710: 03ca 261e 2ab3 423f edbb 00be 751d 3ebf
00000720: 0103 970e b569 393f 1194 62f9 4ea2 4a3f
00000730: fc76 2e4b 832e 9abf 612e 11e6 845d 533f
00000740: 094b d394 5427 5f3f 0bfe a5db daae 483f
00000750: 842a 4a8f 412b 763f 3c45 3ffd 6671 61bf
00000760: 0674 a70d 32df 733f 57df 0f8f 870a 6b3f
00000770: 1d92 fa1b 0639 573f f7b8 a440 a953 cebf
00000780: 8801 0fb7 e734 703f 00b2 f947 1965 5e3f
00000790: bd5f fd64 2151 b13f d2f4 f7ec 60d6 513f
000007a0: fa66 cbf2 6a98 45bf 2171 3e90 48ef 673f
000007b0: fc36 3d50 102b 6d3f 63d6 a8c6 2d9d 723f
000007c0: 76ae 9562 f69a 56bf 697b f4ba ba05 503f
000007d0: d218 f3f4 cd52 533f cb0f 2832 76a0 79bf
000007e0: 8d5e 3261 198f 743f b727 2de7 b38a 44bf
000007f0: cf4e 5775 231d aabf e402 dbc1 4fb7 603f
0.0006319830136856216 0.0011026790985077387 0.00011603663478413864 -0.00041270780757880993 0.0017152001137519068 0.002410980892382304 -0.4164356738137727 0.06524189114601256
0.09925813159394312 -0.032788420671229 0.0038918479810215304 0.00020982920154559635 0.011511031611231612 0.00032407919958534116 0.004829311775179103 -0.0012615582187590175
0.00024087763533181387 0.00028774029448525956 0.009816371391491606 0.0005271733166217372 -0.0008762090756165882 0.018735733232123918 -0.010316648601373117 -0.00031573785011175493
0.005379593027156896 0.0031794480155484853 -0.5194543663344199 0.0016202101241333383 -0.0010377196324418386 0.006885292580859779 0.0029186806032207367 -0.0022762950257914096
0.0016343341891130775 -0.003259217309630408 -0.0011448901771628842 -0.00015007291217289208 0.0013265059525583392 -0.00021432392557251323 -0.003211327573403309 -0.08008118354523076
0.00707794576461314 0.0011645002964766867 -0.0016785269531100946 -0.011584537027808687 -0.0026444091374911664 0.0006441717386068843 0.007066900979498729 0.008055950851913333
0.006406733018669036 0.002773468584462888 0.0010590910851775328 0.0030622753600149863 0.0002949872270035304 0.0029052524169080117 0.0013377107984286752 -0.001965801391137595
-0.0011903550492123119 -0.2823944647955133 0.002873594497101789 -0.0012614350524593294 -0.0005658840481384011 -0.000354465382149394 0.0006486581776704235 0.0005305402561310143
0.0005972171313191184 -7.27429682987792e-05 -0.001372441854812088 -0.004903499088534505 -0.0008827122030106393 0.0021585554031915174 0.0015117531622293142 -0.19273550656859872
-0.001975619175244727 -0.0009406790905017741 0.0029504621485319693 -0.0006786045447977255 0.00432702563515092 0.0005485889647521328 0.0009313389669994407 0.011238197515937121
-0.002226114037378633 0.010191129530902907 0.0037423570226125494 -0.0015546671886319365 -0.0005462922463252638 -0.0007639822837081097 0.0021612035291352534 -5.0001378788834965e-05
-0.0008144052658361271 -0.0025834244144855357 -0.0008494267559033021 0.001680334996294007 0.004755975881812509 -0.00013768231655252502 -0.0009148901952344494 0.00590428294341978
-0.00023083901186988267 -0.025014870755091803 0.0011361204000603787 -0.0009384715092698452 0.0022429037149946343 -0.00043395061858619567 0.10707192291346324 -0.00010348310135810301
0.003359371665045883 -0.00043571712462451895 -0.0003006942266506559 -0.0006610647876247457 0.00031113156264593177 0.06567217927319652 -0.0002936048308266658 0.0015368566676520216
0.013838922143196142 -0.0014096135273128473 -0.00035801935898388906 0.04673851025157563 -0.00029768273774980516 -0.0011953522342711131 -0.00280635795338979 0.0013696363354596393
0.000640938722475167 0.0004509834515239645 0.0035872702264715343 7.709417481315816e-05 0.0016035920287421818 0.0017806958098273238 0.00013871689303845508 -0.0004758846268346222
0.12422851697830224 0.016082450886739895 -7.366634317887987e-05 -0.2046454896727149 0.002193427640703225 -0.000962778588732365 -0.000784359273595913 -0.0019077327035308702
0.002121016753834402 -0.0004874550141960312 -5.3209100749421404e-05 0.000538274291730275 -0.00016370132753505494 0.0034880833985740474 0.00030642254968614403 0.07283449489556339
0.0011915922816712336 -0.00027159724091693977 0.00301087509915705 0.00033889115185988336 0.052666271433205056 0.008824618709493642 0.01868826252211048 -0.0005943587983959304
0.00210483796802088 0.0006751459271134051 0.029882434075452366 0.0004529177210923228 0.02128657818233361 0.003828883502709938 -0.0022107120088491385 -0.00018574891641429225
0.0007302911461858035 -0.002193215460693339 0.0019911111790859412 0.0002985785001414566 0.0073820656683401915 -0.0013154438456495863 -0.00012320674802834264 0.043890958161731636
0.0028580136036676033 -0.0006358481647297138 0.0007732343260671754 9.350979253861152e-05 0.0032131758192236654 -0.0007543971608577584 0.0023593561185433487 -0.0008466815701065303
0.00012000330987398132 -0.0003631554694879186 -8.66758569395016e-05 -0.00202025447112228 0.0007394994790568104 0.004542952922010133 0.001360046572133865 -0.0010855999367935345
0.026297241772089017 0.009928725069531122 0.1292180431870422 0.00010790639044645758 -0.0019815398097758324 -4.0468887281758204e-05 -0.0046942710769205965 0.0027641941311391557
0.0031856047408351236 -0.00020233303943027487 0.0023913828049460183 0.0009057399259662398 0.0003302322868282811 0.0009106953260972177 0.009493281458151745 0.0026076926432119737
0.002305475566136694 -0.005136462465717355 -3.787738298775846e-05 0.0017940259065958256 0.0013570296376135395 -0.01858003842150816 0.0007118064727581637 -0.0033380742013699003
-0.001449968818668357 0.0014547544742658986 0.007018152105290843 0.01368291517359818 0.0042009582229460204 -0.0008808545416314195 -0.00950092672202699 0.00624232310887495
-0.07730824144427736 0.09919906485604282 -0.0016724192874724593 -0.0009579625476104696 0.0014200548282626586 0.01632987515022112 0.0003370238571452629 0.00021612397062274307
-0.00036258920412888065 -0.029960403290420472 0.0005706744816989521 -0.00045951962056539516 0.00038777036987984464 0.0008128057113664396 -0.02556805750247458 0.0011819646681655793
0.0019014669408547477 0.000753266205080595 0.0054123459746146 -0.0021292697437977053 0.004851527710767028 0.0033009193070902376 0.0014174041424804891 -0.23692813545626
0.003956704270365548 0.0018551585088985023 0.06764420238084674 0.0010887095012315673 -0.000659038754373869 0.0029217164282738938 0.00356057344644156 0.004544428646615725
-0.001379719362684021 0.0009779284990327436 0.0011794101044855687 -0.006256543829753223 0.005019282473902498 -0.0006268862183358347 -0.051003559182985485 0.002040534759402456
