Testing/Neural_net/weights/w1_c.npy (npy, 192128 bytes, 1 tensors)

array f8 [1000, 24]
0	0x3fa7235411803368	0.045191409241033764
1	0xbfb022e0aa86a9f3	-0.06303218997224018
2	0x3fb0765591db3cff	0.06430563746402028
3	0x3f9bc96c0cb72ff7	0.027135551715943475
4	0x3fba0bbed8c24915	0.10174172203031547
5	0x3fa2b8d9107aaaa1	0.036566527616135554
6	0xbf841dd38f937bb3	-0.009822514361472167
7	0xbfac74f32fb11d86	-0.05557975728202806
8	0xbf95e15e77cabc6a	-0.021367527066726323
9	0x3f8915b67726c81a	0.01224844504472249
10	0x3f9419b0e9ab730d	0.01962925363737882
11	0xbf9f2fc9880a727f	-0.030455731323501652
12	0x3faf1ee15dfd6c02	0.0607824733003426
13	0xbfbad2edd0538137	-0.10478102050865777
14	0xbf3e41d54e4ba0f2	-0.0004616876379217725
15	0x3f9b55aeca5dd68e	0.026694041348909674
16	0xbf710c7f05bfbe03	-0.00416230791232364
17	0xbf88e2d6e6edbf6e	-0.012151411936173164
18	0xbf845dd7596904a4	-0.00994461289985999
19	0xbf981a08471b4ddd	-0.02353680547714797
20	0xbf792155138ca2bb	-0.006135303811597377
21	0x3f96a97aef483ea9	0.02213089070761379
22	0x3f9257ceaac5fe06	0.017913083241635895
23	0x3f85bdf6ca6b3458	0.010616233875589895
24	0xbf676c91ac8adf5f	-0.0028593869395442807
25	0x3f89856c3445c8fe	0.012461514802201364
26	0xbf8725ebabbc9465	-0.011302796534048374
27	0xbf56f21c4a5d486c	-0.0014004970812107288
28	0xbf8e01098d35bcf3	-0.014650416013607592
29	0xbf817ce7deba5d43	-0.00853902004682417
30	0x3f505396ed031c94	0.0009964918026968183
31	0x3f83dcf9c2c271a9	0.009698821312036214
32	0xbf8aa7a9d7b74a29	-0.01301510514796174
33	0xbf7a30a921a51b3e	-0.006394062680846356
34	0xbf891ced9990c0e4	-0.012262207268662846
35	0xbf8a3d849f573561	-0.012812648880663859
36	0xbf68c6db48eb4502	-0.0030245097071676117
37	0xbf880444d3c15a47	-0.011726892196901718
38	0xbf30b16ac11be5ab	-0.00025471550280505945
39	0xbf807f8b94acb727	-0.00805577323407254
40	0xbf71fcbe6fe6a333	-0.004391425986263897
41	0xbf85281963dea904	-0.010330389366420174
42	0x3f57c592cf13d9e3	0.0014509137802726161
43	0x3f416662885de134	0.0005310040585149501
44	0xbf659d988f614c07	-0.002638624161627859
45	0xbf680bb33bef0973	-0.0029352665582972836
46	0xbf5851ad3c888315	-0.0014843169939313162
47	0x3f57d80fdbf26c9b	0.0014553217768369711
48	0xbf2d3c3d89d0b874	-0.00022304774475529236
49	0xbf7d498f821b512a	-0.00715023095991211
50	0x3f87301c8dda4061	0.011322234229084129
51	0x3f69044c8aca9174	0.0030538077320036387
52	0x3f8fe7fd125c5985	0.015579201815438601
53	0x3f695c35405b271e	0.0030957260194996025
54	0xbf683efae854fbe6	-0.002959718755533458
55	0xbf80f2ddc68b7fbe	-0.008275730725870175
56	0xbf96f765a8d6eafa	-0.022428120069643655
57	0xbf889f5a463eccac	-0.012022691029278519
58	0xbf265b6cbc354190	-0.0001705713494666414
59	0xbf604f2dde80ced1	-0.0019908805734532927
60	0xbf8c8455f2a07db8	-0.013924285380254683
61	0xbf7cf5416fddc1c6	-0.0070698314792569435
62	0xbf4fb768a5803fc9	-0.0009679089516811897
63	0x3f70a345033d611c	0.0040619560057495695
64	0xbf755c0270138f21	-0.0052147002436162835
65	0x3f871249cccfea11	0.011265350878592735
66	0xbf63999cab538313	-0.0023925838419106642
67	0x3f41e9010cdfa798	0.0005465750816686541
68	0xbf4f8e4b18313755	-0.0009630076095932064
69	0x3f3680c55b0c9079	0.0003433687043517052
70	0x3f510bb1dbcbba7e	0.0010403859043283388
71	0x3f5c11d570e811ed	0.0017132362733046594
72	0x3f759d54f6541967	0.005276996501612486
73	0xbf91d347e8b3ab79	-0.017407535150521156
74	0x3f9327ec5e7249eb	0.0187069828649075
75	0x3f729422c0d1560a	0.004535804514565376
76	0x3f9e7d49b63ed62a	0.029774810551051946
77	0x3f82e1eff172a540	0.009220003658202303
78	0xbf743e876032cae7	-0.004942444621678566
79	0xbf8cd8d368af91d0	-0.014085437423951769
80	0xbf921085f98062f0	-0.017641156533588054
81	0xbf7f16498be58dfc	-0.007589614191917612
82	0x3f8709dc157c11fa	0.011249274640712226
83	0xbf79364dca29c41e	-0.006155303827299922
84	0xbf9582ef50450c52	-0.02100728919436918
85	0xbf741e7b20b603f1	-0.004911881416206563
86	0x3f0eb0121753f4c7	5.853228769046311e-05
87	0x3f7a5ed03eb99732	0.006438077408892616
88	0x3f3de0683dacb4f6	0.0004558805937218824
89	0x3f91f8afa68f4c5c	0.01755022482013789
90	0xbf702f828558f2ac	-0.003951558921070724
91	0xbf700d4ff2c7dd26	-0.00391894559697129
92	0x3f582267443fdb69	0.001473046156204661
93	0xbf592ac66578c230	-0.0015360772575939811
94	0x3f7596da991b2bb4	0.0052708186137335085
95	0xbf672a885b8568ab	-0.0028278983337886774
96	0x3f702c21d4d11d23	0.003948337701394497
97	0x3f93f56750336781	0.019490827817981952
98	0xbf9379b127fdd4f8	-0.019018905702485406
99	0x3f71e7da7ae9bcc0	0.004371503293994994
100	0xbf9e23fe4c797e5c	-0.029434178750646786
101	0xbf8f392f8494bc52	-0.015245791657973271
102	0x3f70854267915358	0.0040333360603498
103	0x3f97293ac9458950	0.022618216070790453
104	0xbf8b6458453a80f7	-0.01337498627918919
105	0x3f840daaef793209	0.009791694100521846
106	0xbf9a8fa856c57270	-0.025938635154818035
107	0xbf9a5b7f55cc706f	-0.025739659892778762
108	0x3f6a8cc39e7a96be	0.003240949696038025
109	0xbf9fc92c899f95bf	-0.031040855312218115
110	0x3f50d9211d8b9e63	0.0010283301727954878
111	0xbf943097c594b5ce	-0.01971661704481225
112	0xbf58b80692385a65	-0.0015087188884358668
113	0xbf94572c519e4786	-0.019863789064011005
114	0x3f6122e2f1c45ba4	0.0020918304927692467
115	0xbf5bac9b229555a6	-0.0016891016951679854
116	0xbf787051077cc833	-0.005966488380908119
117	0xbf7fcd7505267b98	-0.007764298543775271
118	0xbf4a5b20a1166185	-0.000804320270776635
119	0x3f83067da14f93c7	0.00928972385913508
120	0xbf750550d7984cab	-0.005132022657124906
121	0x3fa5d8d3d87cd3e5	0.04266988771124839
122	0xbfa65858a21f335b	-0.04364277819659065
123	0xbf891151f92e490d	-0.012240066925901983
124	0xbfaf637ee87eb68c	-0.0613059672171917
125	0xbf97841350303b9d	-0.02296476532870494
126	0x3f81377c669d8e36	0.0084066122833014
127	0x3fa4cf720c4ca3f3	0.04064518356455684
128	0xbf276dcfb3088987	-0.00017874870674556792
129	0xbf9c228ffd8d4828	-0.027475595331743957
130	0xbf852f587782b8b8	-0.010344210765051862
131	0xbf92839f8892ea73	-0.01808022757607337
132	0x3f9158d3c8378763	0.016940411658544884
133	0x3f8d460cdd9fec0a	0.014293766511391599
134	0x3f3f00c74521268f	0.0004730688571084962
135	0xbf9620ee693abead	-0.02160999791402556
136	0xbfa35e3ba8cde75e	-0.03782831607436664
137	0xbfa90c51646a37c8	-0.04892210341232289
138	0x3f90e7d2cea52146	0.01650933634053444
139	0xbf7001323b3f9891	-0.00390739080100934
140	0xbf62b676687d497b	-0.0022842705401810415
141	0xbf91472b6d3e1757	-0.016873053114543648
142	0xbf8356215d56a4eb	-0.009441624318088112
143	0xbf9763def5736e3b	-0.02284191487420471
144	0x3fcc76ce28e84e90	0.22237565038141272
145	0x3fda809494d04f72	0.41409792454327665
146	0xbfc823f9c043aa27	-0.1885978878775216
147	0xbff648462276aaed	-1.3926450105888606
148	0xbfd5418f1c3df5f0	-0.3321264053155053
149	0x3fe6263168b084a2	0.6921622318951857
150	0x3fa6aa028498f794	0.04426582211134114
151	0x3fc05a997b9acfd3	0.12776487861049066
152	0x3fc86ffd41e82852	0.19091764181240706
153	0xbfe0e397af82377d	-0.5277822902587413
154	0xbfe032bfff6ae7c4	-0.5061950672745685
155	0x3fe291ba94bb620d	0.5802891640587987
156	0x3fd6bf27297e6ba0	0.3554170518124753
157	0x3fa0e15361c4eb6e	0.032969098744124334
158	0xbf406fe9f04f2741	-0.0005016224173399545
159	0x3fd9687675e9f876	0.3970008994582551
160	0xbf88a122809e4df1	-0.01202609019291054
161	0xbf9611a3efa63f3d	-0.021551667692221377
162	0xbfe82ac100143299	-0.7552189828434904
163	0x3fc0ad0f734aef43	0.13028138284232157
164	0xbff62ecc7dfb86a5	-1.3864254876320186
165	0x3fcf735b60764190	0.2457079144483143
166	0x3fd85375598f6176	0.38009389635183
167	0xbfb26cdf008ab996	-0.07197374118070451
168	0xbf7e52431efba364	-0.0074026700892567444
169	0x3fb57b77afe6afe4	0.08391521496258708
170	0x3fa8a6283bbbb3ed	0.04814267853894436
171	0xbfc2f7f277aef122	-0.148191746176857
172	0x3fb1fe2fb829cb74	0.07028482671902997
173	0x3fac6691f3db353b	0.055470047967541146
174	0x3f812926221f471a	0.008379266659094099
175	0xbfb0d1675f339444	-0.06569524835829649
176	0x3fb8db2cf94a9509	0.09709435545171997
177	0xbfc661f28f32ddeb	-0.17486412040828667
178	0xbfc1f987f5b3f0f4	-0.14042758462154092
179	0xbfa6de0ebb3504c8	-0.04466291461222621
180	0xbf904448e2281533	-0.0158854854617136
181	0x3fbca07f65e9e871	0.11182399976851955
182	0xbf5dd6300db00cda	-0.0018210858604568642
183	0x3fac26a6192a036b	0.05498236710719236
184	0xbfc2668d7dd3ecc8	-0.14375466007172677
185	0xbfaafd8e7e0ef4ab	-0.05271573342131693
186	0xbfa63ccc3ee02fda	-0.04343260066534045
187	0xbfa368c7abc3ca60	-0.03790878268946041
188	0xbfac674c94b9150f	-0.05547560992685351
189	0xbf82d8014211b843	-0.009201059178135412
190	0xbfb8b86da6ff8853	-0.09656415297607283
191	0xbfab3777082b8e22	-0.053157539126712075
192	0xbf91265c097d2f2e	-0.016747892455256146
193	0x3f9180b9584a3d68	0.017092605603975214
194	0x3faa6fbf0dbdc9ea	0.051633806636249904
195	0x3fb1c1ff38ae804b	0.06936640867070414
196	0x3fbbdce10493253a	0.10883909570397501
197	0xbfbd43008797f557	-0.11430362043752972
198	0x3fba66566f3f5110	0.10312404838561329
199	0xbfb2dff6c124c801	-0.07372991767331884
200	0xbfcd16e35497376c	-0.22726098661808736
201	0xbfd866339521568e	-0.3812378841733811
202	0x3fdedb5bcb08f0ba	0.48213858440045565
203	0xbfcd16e28f9b4352	-0.22726089489017426
204	0x3fd7b18c9fddbf21	0.370211750144323
205	0x3fc0261e17fb4586	0.12616325541470647
206	0x3f4d4182f52f03df	0.0008928193513996172
207	0xbfd820c5030da206	-0.37700009630364695
208	0xbfd02d43c090dfe2	-0.25276273541703465
209	0xbfd058d939d69fe6	-0.25542288444785155
210	0xbfb05248f66ce768	-0.06375556961293471
211	0x3fc23274eaff2db5	0.1421648166127462
212	0xbf9a4c9ba5d33791	-0.025682861324461796
213	0x3f70e7ad5881e4cd	0.004127194530263623
214	0xbfb8189d943ec579	-0.09412560338275523
215	0xbfa306bbd5bb1d85	-0.03716074928302774
216	0xbfb40e0587ae563e	-0.07833895266079424
217	0xbfb12091d9976e7c	-0.06690322458546832
218	0x3fb3f38568addf77	0.07793458753246606
219	0x3f969b16d402fd67	0.022075993242422067
220	0x3fc098f5a4206765	0.12966795457833338
221	0x3f8950c6fcb07f76	0.012361101709813953
222	0xbf79db0c7417109d	-0.006312416693109804
223	0xbfb2df8c32f82450	-0.07372356647842193
224	0x3fd39e50c5529ae9	0.306537811944891
225	0xbfd1649c3d406628	-0.27176576596829927
226	0xbfbdff60599b096a	-0.11717798411976835
227	0xbf9dd4b71a51f10e	-0.029131756764841525
228	0x3fc350108c63ff68	0.15088087897310776
229	0xbfd3f0caf414bc03	-0.3115718253711181
230	0xbed185cbe8d48cba	-4.177723565565434e-06
231	0xbfb7e187f3c801d6	-0.09328508092585905
232	0xbf952718cd58864e	-0.020656955273926685
233	0xbf88241769d1bd82	-0.011787588993881885
234	0xbfa822cfd4abb624	-0.047140593252930324
235	0x3fd465d73a8d1b9e	0.31871586530581364
236	0xbfc3ed69f98ee1bd	-0.15568279920058883
237	0x3f820773cb74e7a8	0.008803276678566466
238	0x3fcd873b385b8618	0.23068943263847141
239	0xbf40cdaf922bca70	-0.0005128009109667941
240	0x3f9e01fb908be950	0.029304438302440616
241	0x3f9613a221bf1a72	0.02155927020046495
242	0xbf9ed2e331a51f27	-0.030101346879091963
243	0x3f9494e76d04e6f3	0.020099273709297937
244	0xbfa61a555edbfbaa	-0.04316965849829242
245	0xbf9cee48e535701b	-0.02825273417452943
246	0x3f66497d227dfd7c	0.002720589069155897
247	0x3fa170e6946c2b01	0.034064489000305904
248	0xbf99c2c0b67ea297	-0.025156985415068247
249	0x3f9ce4f8f5b04e0e	0.02821721076550259
250	0xbfad46092f557cf8	-0.05717495634848463
251	0xbfa915100b99e8ad	-0.04898882047287265
252	0x3f9a1b3899e0da62	0.025494465248096516
253	0xbfac93329cad3281	-0.055810529351764344
254	0xbf070f7964a19131	-4.3984310267560624e-05
255	0xbf99cddab14c3b48	-0.025199334212682417
