Testing/Neural_net/weights/w2_c.npy (npy, 8128 bytes, 1 tensors)

array f8 [1, 1000]
000000 e3 04 3b 2e 7d c3 b5 bf 89 58 e0 39 5a f5 8a 3f
       -0.08501417521167158 0.01316328515171629
000010 7e 98 b6 8b a4 16 9b bf d8 83 15 8e 5e 98 a3 bf
       -0.026453562762661857 -0.03827186092781404
000020 12 ae 02 1f c4 4b a7 3f 2c c7 43 5d a8 1f b0 3f
       0.04549992445512542 0.06298305775615337
000030 ed dc da 9a 02 c2 03 40 53 1a f1 ec f8 14 dc bf
       2.469731530956429 -0.4387800516018718
000040 07 06 c4 f7 86 d2 e9 bf af 35 b6 aa 1e 32 e1 bf
       -0.8069491233038101 -0.5373681387151715
000050 cf d5 7e 5c e2 4c ba 3f 57 6f 30 b1 f9 4b a7 3f
       0.10273566015424439 0.0455015209956559
000060 75 fa e3 1f a4 96 d0 3f d1 b9 2a 81 0a 74 ad bf
       0.25919440378485287 -0.05752594782585486
000070 0b e4 72 6e 1f 4a b9 3f 4e fd 34 05 41 d1 8c 3f
       0.0987872738504764 0.01407099530353997
000080 d7 07 65 62 a7 c6 9f 3f 9a 4e 45 9e 74 fc 96 3f
       0.031031241779835596 0.022447416458205006
000090 00 28 a9 ce 4d c4 c6 bf 04 49 d1 97 c6 cb a0 3f
       -0.17786572066171402 0.03280468562356201
0000a0 35 09 69 ed a1 6a 93 bf b1 76 78 c4 07 93 cd bf
       -0.01896145831620651 -0.23104950993813625
0000b0 f5 07 b9 2d 78 60 d4 bf 90 31 80 43 72 5a a8 bf
       -0.3183880278121472 -0.04756505083068696
0000c0 b6 bd 7f 90 88 03 bd 3f 31 c2 64 96 75 5f b1 3f
       0.11333516624266946 0.06786284372061215
0000d0 ef 77 a7 33 ac 41 f7 3f 34 c4 80 36 9b 3d ba 3f
       1.4535333650342144 0.10250253754271982
0000e0 55 52 3c 45 47 db a2 bf fe 89 bc c9 8b 2c ce 3f
       -0.036829211427321575 0.2357344374696168
0000f0 fb 6f c2 97 cd 18 c9 bf 0e 91 f7 89 29 4d a8 3f
       -0.1960694304478919 0.0474637013356035
000100 96 e4 5b 63 76 07 b3 bf 55 dd c9 af cb f6 c3 3f
       -0.07433261800533084 0.15596910556244362
000110 2d e2 16 71 9d d1 a5 3f ed 6a a7 da bd ca ae bf
       0.042614860586983695 -0.06014054578891668
000120 9a 71 1f 2e 3d b1 b3 bf 3a 73 89 df e6 c5 93 bf
       -0.07692320228620134 -0.01930962313996363
000130 97 0a fa 8e e5 12 d2 bf ec df 0f be d8 b0 ea 3f
       -0.28240336382456505 0.8340877258442538
000140 97 15 6f ab dd af c0 3f ee 4f b8 4d 96 19 a7 bf
       0.13036700125500708 -0.04511708925943468
000150 22 99 04 85 97 bf 98 bf 70 d8 3b 06 89 7d c1 bf
       -0.02416836499573905 -0.13664353184111944
000160 69 b9 ca 3c 0c 42 b9 3f e0 8a b9 10 48 d0 b7 bf
       0.09866405948807756 -0.09302187355346403
000170 46 7d 69 da 54 73 c8 bf d3 84 81 12 ac 9d ce 3f
       -0.1910196367707419 0.2391867723809243
000180 9b d1 42 b5 0b ea cf 3f c6 16 84 ca b9 9b b7 3f
       0.2493300089896707 0.09221993631589517
000190 40 9a 15 12 6f 53 8e 3f 4c 02 6e 53 19 43 c0 3f
       0.014807574977294569 0.12704769681660577
0001a0 55 06 38 f9 ca 08 a2 3f 2b e9 96 c5 9a 19 b8 3f
       0.03522333423826455 0.0941406948467473
0001b0 47 e4 88 e3 9e 41 b6 3f 87 28 a6 0e 70 8d c4 3f
       0.0869387917999954 0.16056633677755291
0001c0 58 b5 53 9f 09 7d a9 3f 2c 71 75 db 42 7a f4 3f
       0.04978208608541007 1.2798489163024653
0001d0 4c 64 72 6a 4e ab c7 3f 6f 89 3a 3c 7e ed ad bf
       0.18491535375213386 -0.05845255360806589
0001e0 6d 56 66 ef 26 e6 99 3f 29 d0 c6 58 59 99 bb bf
       0.02529202305011895 -0.10780867020986364
0001f0 1f da 81 1d 8c a0 a2 3f bb b1 5e 7c c5 34 9f bf
       0.03638112888522848 -0.030474744525848623
000200 76 f3 79 77 eb ec b2 bf bf 4a 37 09 72 f3 ad bf
       -0.07392760912803262 -0.058497966408727724
000210 2d d2 a0 b4 4f b9 aa 3f 8a 7f 11 95 86 90 b4 bf
       0.05219506339964073 -0.08033028735508033
000220 e0 d4 52 b4 36 51 83 3f d7 2b 48 32 4a 65 cc 3f
       0.009432246568716385 0.22184112029239486
000230 08 fe b7 af 5a e8 b1 bf 2b 4e 4d f5 9d f9 f8 3f
       -0.06995169439323246 1.5609416563137397
000240 5a 62 51 97 1b 54 b4 3f 1e 4e 36 b3 f1 11 95 bf
       0.07940838283810461 -0.020576263964882206
000250 fa 07 16 ee 0c 97 b6 bf 69 da eb 4c 4e 26 a3 bf
       -0.08824234783790522 -0.0374016255281518
000260 b0 03 79 f3 35 c7 c1 3f d5 50 94 21 0b 14 9f 3f
       0.13889192951503793 0.03034989731266154
000270 4c 84 12 81 be 64 b1 bf a1 68 08 45 8d 8e da bf
       -0.06794348384075127 -0.41495067349900167
000280 a8 59 ed de fd 7f 97 bf b7 00 6f 64 77 08 ca 3f
       -0.022949187022584333 0.20338337329849818
000290 25 4d 89 e8 9c 11 b5 3f 67 b2 50 25 e0 bb a0 3f
       0.08230000188023164 0.032683376841622196
0002a0 30 fd ee 91 0b be 99 bf 3b 69 04 c7 06 60 93 bf
       -0.025139027387692525 -0.018920999428794643
0002b0 8c 8a aa 26 41 f6 c1 bf 66 a2 2d 69 fb 87 a0 bf
       -0.14032759082791235 -0.03228746088899896
0002c0 d5 12 06 e9 69 67 b2 bf d7 d1 b9 65 e8 b8 b5 bf
       -0.07189046801620276 -0.08485271914998492
0002d0 e3 23 08 c1 51 27 9d bf 84 b4 67 1e 44 0f b0 3f
       -0.028470303923345496 0.06273294203102081
0002e0 6e 9d 29 65 78 fb c0 3f eb 66 43 68 fd 35 96 bf
       0.13267426433160828 -0.02169033001778235
0002f0 a8 6c bc f1 24 f7 a4 bf fe 01 b0 d5 4c 95 bf 3f
       -0.04094806147460278 0.12337188927632067
000300 6b d3 bd ba 2d 01 a4 bf aa 01 72 97 f8 f8 d8 3f
       -0.03907149223861136 0.3901959876020792
000310 6d e8 90 18 9e b1 b0 3f 5a 71 28 e2 47 1f 67 bf
       0.06521022891766544 -0.002822533032725766
000320 43 f5 4b 22 e9 47 b0 3f 5d 10 f7 21 ea ab db bf
       0.0635972698909955 -0.43236783329871803
000330 ae a2 0a df a0 88 fa bf 49 62 64 f8 7c c4 a9 3f
       -1.658356543785128 0.05032721073275021
000340 54 cf 3b 01 d8 9d bb 3f 76 e6 30 de 89 5b 96 bf
       0.10787725477331139 -0.021833566843474782
000350 95 03 6c 33 ff a9 80 bf ce b6 4a 2c 1c 58 75 3f
       -0.00813674331357265 0.005210981417503381
000360 fc 3d 9d ed 08 c2 9b bf 66 0e e4 91 69 30 ea bf
       -0.027107371809789158 -0.8184097146444855
000370 86 6f 4d 27 ec 17 b0 3f 3a 4c 0f ff 6f 3b b4 bf
       0.0628650279954269 -0.07903194405598493
000380 a3 f4 64 c3 d0 23 ca bf ee ab 38 71 31 11 95 bf
       -0.20421800175418978 -0.020573399100765437
000390 c7 d7 c0 60 bc 60 b4 bf 89 62 41 c5 d9 cf d6 bf
       -0.07960107195034914 -0.35643619788383113
0003a0 bc 53 10 0b c4 6a a1 bf 95 10 cb 44 73 cf ab bf
       -0.03401768336349373 -0.05431709494362839
0003b0 7b 1a 27 b5 ca 32 9f bf e4 41 f5 9a 41 90 a0 bf
       -0.030467192942320125 -0.03235058800294491
0003c0 3d 7e be 01 e2 e3 50 3f fd 9c 91 85 75 ae 8a bf
       0.0010308940027029666 -0.013028066767402974
0003d0 98 00 0c 41 cb 33 c0 3f 49 8c 66 c0 7f 7d 83 3f
       0.12658062625996958 0.009516714152431176
0003e0 47 85 94 95 12 07 b1 3f dc e9 73 a0 2e fe bd bf
       0.06651416923388807 -0.11715976159386038
0003f0 14 62 29 c8 a5 ea a8 bf 35 60 7a 0f 89 8c 82 3f
       -0.0486652190053897 0.009057112488605504
000400 35 1f 1c 07 39 8d e4 3f cd a1 b2 b9 df ff cd bf
       0.6422391070236474 -0.23437115256571275
000410 d8 eb 1d ab ba d6 7d 3f 6a d1 6c 2e 92 5b f9 bf
       0.0072848598227847824 -1.5848562062720597
000420 7b 82 da c1 7e 4f b6 bf a7 9b 75 e6 f4 94 9a 3f
       -0.08715049965622683 0.025958849493146776
000430 38 95 25 b2 f8 3e 90 bf 63 94 19 64 68 8e 99 bf
       -0.015865217087953826 -0.024957305059065137
000440 67 f5 5f 24 bf df b7 3f 7b bb 5a 6a 13 bc a3 bf
       0.09325785291726661 -0.038544279797284774
000450 ed 46 f4 33 1b 0f bb bf 58 c2 66 a1 e8 85 a8 3f
       -0.10569925325787795 0.04789664240104646
000460 36 93 6d db cd 85 a1 3f ce 8a 92 2b 27 2f c1 3f
       0.03422396949353017 0.13425149562416155
000470 76 d7 7d 10 c4 02 c1 bf ff 28 7a d9 61 2d ec 3f
       -0.13289690785648717 0.8805398223496751
000480 75 98 dc 72 ef 34 b8 bf 88 61 9a 42 ef c8 b6 bf
       -0.09455772928467517 -0.08900351882983248
000490 c4 34 25 a4 a6 97 bf 3f 4f 05 98 58 6f 93 90 bf
       0.12340775973753454 -0.016187419683779066
0004a0 0d cc 42 ff 89 50 fd bf 8d 9e f6 de 3a cf c6 3f
       -1.8321628543023991 0.1781991566360727
0004b0 79 b4 18 4f c7 de ce bf cb 41 2e f1 15 b3 c6 bf
       -0.24117366182455038 -0.1773402621879668
0004c0 de af 2f 0a cc 08 b8 bf c0 4e 77 ba 82 e1 a7 bf
       -0.09388423203171167 -0.04664238477894633
0004d0 3c 84 db 53 81 fd eb 3f 44 44 48 44 de 12 a3 bf
       0.8746954572526486 -0.037253328166237526
0004e0 2d ea 47 6f 97 48 d0 bf ff 85 76 cd 69 9b c0 bf
       -0.25443063609387445 -0.12974283726093458
0004f0 91 5e d0 7e c0 16 9a bf 2c ae 01 1b 33 73 3b bf
       -0.02547741674433596 -0.00041885373776182305
000500 26 de 2e 62 10 b2 8f bf 32 dd 89 b4 e1 b8 9f 3f
       -0.015476348873433809 0.030978705066869235
000510 b3 9c 8d ad 56 d5 c9 bf d8 12 0e 2c ec 89 65 bf
       -0.20182307695652 -0.0026292431579711777
000520 f2 ff 33 16 c5 85 cb bf 34 05 6f 5c 7b 9a 9b 3f
       -0.21501983245980189 0.026956489102080997
000530 7e 50 76 e3 f0 2b 9f bf 15 73 5b 4a ac a0 d6 bf
       -0.03044105900114901 -0.3535567022461675
000540 14 36 e3 3f 34 fa b1 3f c7 7a 2f cd 8a 5e 98 bf
       0.07022406158213129 -0.0237981498465796
000550 32 a3 32 b9 63 4d a0 3f 3e e6 df 45 e3 dd ab 3f
       0.03184043536868443 0.054427244453063114
000560 09 5b 3e 3b 77 53 ba 3f 0f b0 8f d9 ee d4 c6 bf
       0.10283608623863584 -0.1783731996832789
000570 9a da fe 41 84 c0 b3 3f 89 97 cb 9c 2b c1 93 bf
       0.07715632067889047 -0.01929157394888351
000580 6a 78 50 48 2c d1 b9 bf fe 1f 92 14 4a 0c 5a 3f
       -0.10084797635542633 0.0015898440781558771
000590 90 93 29 35 b9 2b a3 3f a7 9c 2a 52 ec fa a6 3f
       0.037442958583404296 0.044883141546330045
0005a0 76 f5 f3 c9 0e 31 a2 bf eb bd c8 be 21 e3 ca 3f
       -0.035530531074964 0.2100565129817221
0005b0 a1 70 86 14 cd 0f b0 3f 86 aa 4d 28 83 a0 ba bf
       0.06274110556700176 -0.10401172384232824
0005c0 8a 58 10 f5 90 a0 e0 3f c1 8d 2a 2a d4 93 c3 3f
       0.5196003710177746 0.1529488759889386
0005d0 a7 85 55 d8 36 70 ee 3f 2f 9f e6 50 6f bd 5c 3f
       0.9511980271601502 0.0017541491575716152
0005e0 37 54 e5 73 b1 b8 b4 bf 77 16 e3 ea 3e fc ac bf
       -0.08094319419372274 -0.0566119825103159
0005f0 73 83 78 62 47 0b c0 bf eb 68 80 1d 41 7a c0 bf
       -0.125344203072952 -0.12873090687282426
000600 fb df 2e c1 05 33 b2 3f 3b 95 3d fd 50 da 9d 3f
       0.0710910412443581 0.029153123337342306
000610 d4 cd 96 b9 d7 80 b7 bf f7 22 f4 27 34 3a a4 3f
       -0.09180973320945124 0.039506559254794675
000620 94 9f a8 3b 65 6c 97 bf 85 12 f7 be e1 6d b7 bf
       -0.022874433294560584 -0.09152041351542024
000630 68 b5 4e 01 13 71 c6 3f f7 7f 5d fa 29 4d b7 3f
       0.1753257519134579 0.09102117884094683
000640 2f a8 85 ad 83 9f b9 bf fb 83 02 28 5f 24 b9 bf
       -0.10009024607066473 -0.09821123816301729
000650 7a 45 58 17 12 23 b9 bf ed 79 79 a3 b5 90 99 3f
       -0.09819138593618063 0.024966085531895322
000660 88 79 b7 70 47 d7 ab bf b0 f6 ce bd 63 d3 f3 3f
       -0.05437682391105897 1.2391087927239077
000670 3d 77 70 c4 76 b7 91 3f ae e8 bc a9 14 43 d2 3f
       0.017301421870903545 0.28534428192109373
000680 65 02 55 14 a8 86 d2 3f 71 e1 a5 0a e1 ee b4 3f
       0.2894687841945028 0.08177000532112345
000690 96 74 d8 02 78 71 c1 3f 30 b1 db 3f 0c 42 d1 3f
       0.13627529276792377 0.26965624080800676
0006a0 79 cb 3e 75 cc 1f c3 3f ff 1a f8 d0 95 43 aa bf
       0.14940791821353708 -0.051296884306841754
0006b0 90 0f 77 ec 08 9b d6 bf 0d 2d 04 73 90 40 c8 3f
       -0.35321257679265106 0.18947034469633942
0006c0 ac 96 c2 2f 2d de ed bf 1f f3 a0 82 ee 0d e5 bf
       -0.9333711560072593 -0.6579506446210849
0006d0 f9 89 14 26 5d 50 ba bf 4d 34 19 6c 21 3b a5 bf
       -0.10278875522320864 -0.04146675533829889
0006e0 42 8c ff aa 95 f3 b7 bf ca 00 7c 8f 78 d4 e8 3f
       -0.0935605566478879 0.7759363939694819
0006f0 00 8b 0b 82 00 54 a5 bf f9 33 d4 57 48 2f af bf
       -0.04165650927986597 -0.06090761253481242
000700 d7 dd dc b9 6a 8b 67 bf d2 e4 23 35 e5 cc e2 bf
       -0.0028740963452056167 -0.5875116384405834
000710 79 39 05 2d 41 97 ca bf 81 97 75 71 fc 8c 9e bf
       -0.20774092386495704 -0.029834694314011315
000720 4f 70 80 ab 4a 7a 82 bf 25 45 20 02 36 52 90 bf
       -0.009022315367524096 -0.01593860996223841
000730 97 a1 38 9d 51 e6 e2 3f 4e 46 8a ef c7 bd b5 3f
       0.5906150885321492 0.08492707822940668
000740 a1 7d 61 0a 94 ea a8 3f b5 4c 6e 35 b4 d1 a4 3f
       0.04866469027251275 0.04066241409523156
000750 38 b4 06 2e eb c7 c5 3f eb 67 59 8e 97 af 78 3f
       0.17016353366253312 0.006026832595660263
000760 e0 1f 72 bc 7d 89 c3 bf b5 28 c0 e1 d9 e8 ae 3f
       -0.15263339711623214 0.06037026291603934
000770 9c 59 fb 64 20 aa bd 3f 50 6f f0 71 3e 30 fa 3f
       0.1158771750009237 1.636778302264208
000780 02 ca 15 85 70 96 c3 bf 82 f5 db 97 7a 45 b0 3f
       -0.15302855013176503 0.06356016356945385
000790 8c 62 cf da 8a 26 e0 bf 5d 5f e4 74 5e 7e b7 bf
       -0.5047048829683987 -0.09177198747454214
0007a0 c1 11 74 50 d3 a8 a8 3f 6e c2 de c2 16 d0 b8 3f
       0.04816303593728178 0.0969251847989285
0007b0 04 ed 73 e3 34 d4 b9 3f f7 b5 38 1b 2f 23 c6 bf
       0.10089426568076837 -0.172948730746995
0007c0 79 cf cd d6 84 a4 94 bf b3 b6 67 be b5 a2 97 bf
       -0.0201588398080754 -0.023081626650244668
0007d0 04 6c 66 a9 30 32 ab 3f 23 33 ba 23 68 b1 ba bf
       0.0531172949588026 -0.10426951286553936
0007e0 9b 4a 56 67 d8 53 c2 bf 4b 44 aa a3 cd 72 98 bf
       -0.14318375631099375 -0.0238754397528889
0007f0 f2 24 8f ca b9 3a e0 3f a1 34 c2 2a 75 e4 a8 3f
       0.5071686702950997 0.04861799380260235
